…
    "model_paths = [os.path.join(models_folder, filename) for filename in os.listdir(models_folder) if filename.endswith('.pth') and not filename.endswith('.csv')]\n",
    "model_names = [os.path.splitext(os.path.basename(path))[0] for path in model_paths]\n",
    "\n",
    "state_dicts = []\n",
    "for model_path, model_name in zip(model_paths, model_names):\n",
    "    checkpoint = torch.load(model_path)\n",
    "    state_dicts.append(checkpoint['model_state_dict'])"
   ]
  },
  {
   "cell_type": "code",
   "execution_count": 23,
   "metadata": {},
   "outputs": [
    {
     "name": "stdout",
     "output_type": "stream",
     "text": [
      "VisionTransformer(\n",
      "  (patch_embed): PatchEmbed(\n",
      "    (proj): Conv2d(3, 768, kernel_size=(16, 16), stride=(16, 16))\n",
      "    (norm): Identity()\n",
      "  )\n",
      "  (pos_drop): Dropout(p=0.0, inplace=False)\n",
      "  (patch_drop): Identity()\n",
      "  (norm_pre): Identity()\n",
      "  (blocks): Sequential(\n",
      "    (0): Block(\n",
      "      (norm1): LayerNorm((768,), eps=1e-06, elementwise_affine=True)\n",
      "      (attn): Attention(\n",
      "        (qkv): Linear(in_features=768, out_features=2304, bias=True)\n",
      "        (q_norm): Identity()\n",
      "        (k_norm): Identity()\n",
      "        (attn_drop): Dropout(p=0.0, inplace=False)\n",
      "        (proj): Linear(in_features=768, out_features=768, bias=True)\n",
      "        (proj_drop): Dropout(p=0.0, inplace=False)\n",
      "      )\n",
      "      (ls1): Identity()\n",
      "      (drop_path1): Identity()\n",
      "      (norm2): LayerNorm((768,), eps=1e-06, elementwise_affine=True)\n",
      "      (mlp): Mlp(\n",
      "        (fc1): Linear(in_features=768, out_features=3072, bias=True)\n",
      "        (act): GELU(approximate='none')\n",
      "        (drop1): Dropout(p=0.0, inplace=False)\n",
      "        (norm): Identity()\n",
      "        (fc2): Linear(in_features=3072, out_features=768, bias=True)\n",
      "        (drop2): Dropout(p=0.0, inplace=False)\n",
      "      )\n",
      "      (ls2): Identity()\n",
      "      (drop_path2): Identity()\n",
      "    )\n",
      "    (1): Block(\n",
      "      (norm1): LayerNorm((768,), eps=1e-06, elementwise_affine=True)\n",
      "      (attn): Attention(\n",
      "        (qkv): Linear(in_features=768, out_features=2304, bias=True)\n",
      "        (q_norm): Identity()\n",
      "        (k_norm): Identity()\n",
      "        (attn_drop): Dropout(p=0.0, inplace=False)\n",
      "        (proj): Linear(in_features=768, out_features=768, bias=True)\n",
      "        (proj_drop): Dropout(p=0.0, inplace=False)\n",
      "      )\n",
      "      (ls1): Identity()\n",
      "      (drop_path1): Identity()\n",
      "      (norm2): LayerNorm((768,), eps=1e-06, elementwise_affine=True)\n",
      "      (mlp): Mlp(\n",
      "        (fc1): Linear(in_features=768, out_features=3072, bias=True)\n",
      "        (act): GELU(approximate='none')\n",
      "        (drop1): Dropout(p=0.0, inplace=False)\n",
      "        (norm): Identity()\n",
      "        (fc2): Linear(in_features=3072, out_features=768, bias=True)\n",
      "        (drop2): Dropout(p=0.0, inplace=False)\n",
      "      )\n",
      "      (ls2): Identity()\n",
      "      (drop_path2): Identity()\n",
      "    )\n",
      "    (2): Block(\n",
      "      (norm1): LayerNorm((768,), eps=1e-06, elementwise_affine=True)\n",
      "      (attn): Attention(\n",
      "        (qkv): Linear(in_features=768, out_features=2304, bias=True)\n",
      "        (q_norm): Identity()\n",
      "        (k_norm): Identity()\n",
      "        (attn_drop): Dropout(p=0.0, inplace=False)\n",
      "        (proj): Linear(in_features=768, out_features=768, bias=True)\n",
      "        (proj_drop): Dropout(p=0.0, inplace=False)\n",
      "      )\n",
      "      (ls1): Identity()\n",
      "      (drop_path1): Identity()\n",
      "      (norm2): LayerNorm((768,), eps=1e-06, elementwise_affine=True)\n",
      "      (mlp): Mlp(\n",
      "        (fc1): Linear(in_features=768, out_features=3072, bias=True)\n",
      "        (act): GELU(approximate='none')\n",
      "        (drop1): Dropout(p=0.0, inplace=False)\n",
      "        (norm): Identity()\n",
      "        (fc2): Linear(in_features=3072, out_features=768, bias=True)\n",
      "        (drop2): Dropout(p=0.0, inplace=False)\n",
      "      )\n",
      "      (ls2): Identity()\n",
      "      (drop_path2): Identity()\n",
      "    )\n",
      "    (3): Block(\n",
      "      (norm1): LayerNorm((768,), eps=1e-06, elementwise_affine=True)\n",
      "      (attn): Attention(\n",
      "        (qkv): Linear(in_features=768, out_features=2304, bias=True)\n",
      "        (q_norm): Identity()\n",
      "        (k_norm): Identity()\n",
      "        (attn_drop): Dropout(p=0.0, inplace=False)\n",
      "        (proj): Linear(in_features=768, out_features=768, bias=True)\n",
      "        (proj_drop): Dropout(p=0.0, inplace=False)\n",
      "      )\n",
      "      (ls1): Identity()\n",
      "      (drop_path1): Identity()\n",
      "      (norm2): LayerNorm((768,), eps=1e-06, elementwise_affine=True)\n",
      "      (mlp): Mlp(\n",
      "        (fc1): Linear(in_features=768, out_features=3072, bias=True)\n",
      "        (act): GELU(approximate='none')\n",
      "        (drop1): Dropout(p=0.0, inplace=False)\n",
      "        (norm): Identity()\n",
      "        (fc2): Linear(in_features=3072, out_features=768, bias=True)\n",
      "        (drop2): Dropout(p=0.0, inplace=False)\n",
      "      )\n",
      "      (ls2): Identity()\n",
      "      (drop_path2): Identity()\n",
      "    )\n",
      "    (4): Block(\n",
      "      (norm1): LayerNorm((768,), eps=1e-06, elementwise_affine=True)\n",
      "      (attn): Attention(\n",
      "        (qkv): Linear(in_features=768, out_features=2304, bias=True)\n",
      "        (q_norm): Identity()\n",
      "        (k_norm): Identity()\n",
      "        (attn_drop): Dropout(p=0.0, inplace=False)\n",
      "        (proj): Linear(in_features=768, out_features=768, bias=True)\n",
      "        (proj_drop): Dropout(p=0.0, inplace=False)\n",
      "      )\n",
      "      (ls1): Identity()\n",
      "      (drop_path1): Identity()\n",
      "      (norm2): LayerNorm((768,), eps=1e-06, elementwise_affine=True)\n",
      "      (mlp): Mlp(\n",
      "        (fc1): Linear(in_features=768, out_features=3072, bias=True)\n",
      "        (act): GELU(approximate='none')\n",
      "        (drop1): Dropout(p=0.0, inplace=False)\n",
      "        (norm): Identity()\n",
      "        (fc2): Linear(in_features=3072, out_features=768, bias=True)\n",
      "        (drop2): Dropout(p=0.0, inplace=False)\n",
      "      )\n",
      "      (ls2): Identity()\n",
      "      (drop_path2): Identity()\n",
      "    )\n",
      "    (5): Block(\n",
      "      (norm1): LayerNorm((768,), eps=1e-06, elementwise_affine=True)\n",
      "      (attn): Attention(\n",
      "        (qkv): Linear(in_features=768, out_features=2304, bias=True)\n",
      "        (q_norm): Identity()\n",
      "        (k_norm): Identity()\n",
      "        (attn_drop): Dropout(p=0.0, inplace=False)\n",
      "        (proj): Linear(in_features=768, out_features=768, bias=True)\n",
      "        (proj_drop): Dropout(p=0.0, inplace=False)\n",
      "      )\n",
      "      (ls1): Identity()\n",
      "      (drop_path1): Identity()\n",
      "      (norm2): LayerNorm((768,), eps=1e-06, elementwise_affine=True)\n",
      "      (mlp): Mlp(\n",
      "        (fc1): Linear(in_features=768, out_features=3072, bias=True)\n",
      "        (act): GELU(approximate='none')\n",
      "        (drop1): Dropout(p=0.0, inplace=False)\n",
      "        (norm): Identity()\n",
      "        (fc2): Linear(in_features=3072, out_features=768, bias=True)\n",
      "        (drop2): Dropout(p=0.0, inplace=False)\n",
      "      )\n",
      "      (ls2): Identity()\n",
      "      (drop_path2): Identity()\n",
      "    )\n",
      "    (6): Block(\n",
      "      (norm1): LayerNorm((768,), eps=1e-06, elementwise_affine=True)\n",
      "      (attn): Attention(\n",
      "        (qkv): Linear(in_features=768, out_features=2304, bias=True)\n",
      "        (q_norm): Identity()\n",
      "        (k_norm): Identity()\n",
      "        (attn_drop): Dropout(p=0.0, inplace=False)\n",
      "        (proj): Linear(in_features=768, out_features=768, bias=True)\n",
      "        (proj_drop): Dropout(p=0.0, inplace=False)\n",
      "      )\n",
      "      (ls1): Identity()\n",
      "      (drop_path1): Identity()\n",
      "      (norm2): LayerNorm((768,), eps=1e-06, elementwise_affine=True)\n",
      "      (mlp): Mlp(\n",
      "        (fc1): Linear(in_features=768, out_features=3072, bias=True)\n",
      "        (act): GELU(approximate='none')\n",
      "        (drop1): Dropout(p=0.0, inplace=False)\n",
      "        (norm): Identity()\n",
      "        (fc2): Linear(in_features=3072, out_features=768, bias=True)\n",
      "        (drop2): Dropout(p=0.0, inplace=False)\n",
      "      )\n",
      "      (ls2): Identity()\n",
      "      (drop_path2): Identity()\n",
      "    )\n",
      "    (7): Block(\n",
      "      (norm1): LayerNorm((768,), eps=1e-06, elementwise_affine=True)\n",
      "      (attn): Attention(\n",
      "        (qkv): Linear(in_features=768, out_features=2304, bias=True)\n",
      "        (q_norm): Identity()\n",
      "        (k_norm): Identity()\n",
      "        (attn_drop): Dropout(p=0.0, inplace=False)\n",
      "        (proj): Linear(in_features=768, out_features=768, bias=True)\n",
      "        (proj_drop): Dropout(p=0.0, inplace=False)\n",
      "      )\n",
      "      (ls1): Identity()\n",
      "      (drop_path1): Identity()\n",
      "      (norm2): LayerNorm((768,), eps=1e-06, elementwise_affine=True)\n",
      "      (mlp): Mlp(\n",
      "        (fc1): Linear(in_features=768, out_features=3072, bias=True)\n",
      "        (act): GELU(approximate='none')\n",
      "        (drop1): Dropout(p=0.0, inplace=False)\n",
      "        (norm): Identity()\n",
      "        (fc2): Linear(in_features=3072, out_features=768, bias=True)\n",
      "        (drop2): Dropout(p=0.0, inplace=False)\n",
      "      )\n",
      "      (ls2): Identity()\n",
      "      (drop_path2): Identity()\n",
      "    )\n",
      "    (8): Block(\n",
      "      (norm1): LayerNorm((768,), eps=1e-06, elementwise_affine=True)\n",
      "      (attn): Attention(\n",
      "        (qkv): Linear(in_features=768, out_features=2304, bias=True)\n",
      "        (q_norm): Identity()\n",
      "        (k_norm): Identity()\n",
      "        (attn_drop): Dropout(p=0.0, inplace=False)\n",
      "        (proj): Linear(in_features=768, out_features=768, bias=True)\n",
      "        (proj_drop): Dropout(p=0.0, inplace=False)\n",
      "      )\n",
      "      (ls1): Identity()\n",
      "      (drop_path1): Identity()\n",
      "      (norm2): LayerNorm((768,), eps=1e-06, elementwise_affine=True)\n",
      "      (mlp): Mlp(\n",
      "        (fc1): Linear(in_features=768, out_features=3072, bias=True)\n",
      "        (act): GELU(approximate='none')\n",
      "        (drop1): Dropout(p=0.0, inplace=False)\n",
      "        (norm): Identity()\n",
      "        (fc2): Linear(in_features=3072, out_features=768, bias=True)\n",
      "        (drop2): Dropout(p=0.0, inplace=False)\n",
      "      )\n",
      "      (ls2): Identity()\n",
      "      (drop_path2): Identity()\n",
      "    )\n",
      "    (9): Block(\n",
      "      (norm1): LayerNorm((768,), eps=1e-06, elementwise_affine=True)\n",
      "      (attn): Attention(\n",
      "        (qkv): Linear(in_features=768, out_features=2304, bias=True)\n",
      "        (q_norm): Identity()\n",
      "        (k_norm): Identity()\n",
      "        (attn_drop): Dropout(p=0.0, inplace=False)\n",
      "        (proj): Linear(in_features=768, out_features=768, bias=True)\n",
      "        (proj_drop): Dropout(p=0.0, inplace=False)\n",
      "      )\n",
      "      (ls1): Identity()\n",
      "      (drop_path1): Identity()\n",
      "      (norm2): LayerNorm((768,), eps=1e-06, elementwise_affine=True)\n",
      "      (mlp): Mlp(\n",
      "        (fc1): Linear(in_features=768, out_features=3072, bias=True)\n",
      "        (act): GELU(approximate='none')\n",
      "        (drop1): Dropout(p=0.0, inplace=False)\n",
      "        (norm): Identity()\n",
      "        (fc2): Linear(in_features=3072, out_features=768, bias=True)\n",
      "        (drop2): Dropout(p=0.0, inplace=False)\n",
      "      )\n",
      "      (ls2): Identity()\n",
      "      (drop_path2): Identity()\n",
      "    )\n",
      "    (10): Block(\n",
      "      (norm1): LayerNorm((768,), eps=1e-06, elementwise_affine=True)\n",
      "      (attn): Attention(\n",
      "        (qkv): Linear(in_features=768, out_features=2304, bias=True)\n",
      "        (q_norm): Identity()\n",
      "        (k_norm): Identity()\n",
      "        (attn_drop): Dropout(p=0.0, inplace=False)\n",
      "        (proj): Linear(in_features=768, out_features=768, bias=True)\n",
      "        (proj_drop): Dropout(p=0.0, inplace=False)\n",
      "      )\n",
      "      (ls1): Identity()\n",
      "      (drop_path1): Identity()\n",
      "      (norm2): LayerNorm((768,), eps=1e-06, elementwise_affine=True)\n",
      "      (mlp): Mlp(\n",
      "        (fc1): Linear(in_features=768, out_features=3072, bias=True)\n",
      "        (act): GELU(approximate='none')\n",
      "        (drop1): Dropout(p=0.0, inplace=False)\n",
      "        (norm): Identity()\n",
      "        (fc2): Linear(in_features=3072, out_features=768, bias=True)\n",
      "        (drop2): Dropout(p=0.0, inplace=False)\n",
      "      )\n",
      "      (ls2): Identity()\n",
      "      (drop_path2): Identity()\n",
      "    )\n",
      "    (11): Block(\n",
      "      (norm1): LayerNorm((768,), eps=1e-06, elementwise_affine=True)\n",
      "      (attn): Attention(\n",
      "        (qkv): Linear(in_features=768, out_features=2304, bias=True)\n",
      "        (q_norm): Identity()\n",
      "        (k_norm): Identity()\n",
      "        (attn_drop): Dropout(p=0.0, inplace=False)\n",
      "        (proj): Linear(in_features=768, out_features=768, bias=True)\n",
      "        (proj_drop): Dropout(p=0.0, inplace=False)\n",
      "      )\n",
      "      (ls1): Identity()\n",
      "      (drop_path1): Identity()\n",
      "      (norm2): LayerNorm((768,), eps=1e-06, elementwise_affine=True)\n",
      "      (mlp): Mlp(\n",
      "        (fc1): Linear(in_features=768, out_features=3072, bias=True)\n",
      "        (act): GELU(approximate='none')\n",
      "        (drop1): Dropout(p=0.0, inplace=False)\n",
      "        (norm): Identity()\n",
      "        (fc2): Linear(in_features=3072, out_features=768, bias=True)\n",
      "        (drop2): Dropout(p=0.0, inplace=False)\n",
      "      )\n",
      "      (ls2): Identity()\n",
      "      (drop_path2): Identity()\n",
      "    )\n",
      "  )\n",
      "  (norm): LayerNorm((768,), eps=1e-06, elementwise_affine=True)\n",
      "  (fc_norm): Identity()\n",
      "  (head_drop): Dropout(p=0.0, inplace=False)\n",
      "  (head): Linear(in_features=768, out_features=2, bias=True)\n",
      ")\n"
     ]
    },
    {
     "data": {
      "application/vnd.jupyter.widget-view+json": {
       "model_id": "c58d584f09dc469e9d13ac82db552515",
       "version_major": 2,
       "version_minor": 0
      },
      "text/plain": [
       "  0%|          | 0/5 [00:00<?, ?it/s]"
      ]
     },
     "metadata": {},
     "output_type": "display_data"
…
